number_classification_model.tflite (tflite, 475220 bytes, 6 tensors)

sequential/dense_1/BiasAdd/ReadVariableOp f4 [128]
00000000: b8f0 543c ca01 9c3d a031 a3ba f4eb eb3c
00000010: 6883 ea3c b6b7 993d ee1f fd3c 0289 b73c
00000020: 9e9a a13d 9e8f 8cbc ed15 8e3d 8e7b a83c
00000030: edb3 153c eb62 ff3c e242 dc3c 1f43 84bc
00000040: 0f0a cebc 5697 463c c892 94ba 931c 5d3d
00000050: 7a9b e13c acf0 343d a466 043c 23bb 073d
00000060: 286f 793d 14d3 2c3d 4700 0d3a 0b80 b23a
00000070: 3053 49bb 6952 843c d86e b33b 62fd 9fbc
00000080: 84ab 483d 34ad 603d cb80 bc3c 198e 893c
00000090: 456a 363d ba5d be3b 00d9 083d a814 543d
000000a0: 4e1c 903d 6a90 353d 7416 a83c 536e 383d
000000b0: c888 ef3b 6889 663d 4ad0 fa3c f7d5 9b3d
000000c0: 027c 18bb 0df9 003d e5b3 f93c 2c9c 39ba
000000d0: 2b0c 0a3d 3635 003c 4396 843c a2c6 513c
000000e0: 41e7 b03d 8469 533c b955 103d ffc4 213d
000000f0: b05b 2c37 a48f 31bb 8551 39bc ad39 683d
00000100: 8b91 5a3d 391a 593d 041c 243d 6762 9b3c
00000110: 3cad 073c 2758 9b3b a6b1 b93b a994 913c
00000120: 2a4d c73c 443b 1bbc f08f 333d 0f2d 413d
00000130: c292 d73c 2eae 733d d964 11bc ad06 07bc
00000140: 38ca 923d 7088 f53c 3fd1 443c 92f1 913c
00000150: e8ac a63b 2e83 b23b 85a4 103a 4d2f 473d
00000160: d833 903c 7a51 a13c 128c cd3c 7047 683d
00000170: ca06 d23c 3f88 1a3c db08 6d3c 26de 5e3d
00000180: c006 ce3c 84bf 183d c9e1 61bc 9609 7a3d
00000190: 2074 273c bd0d 97bc 7c9b 8b3c 55ba 813c
000001a0: aca9 583c 942d 003d e125 c93c 4cc5 eb3c
000001b0: 16c9 2f3c 75b7 61bc 177b 703d 9064 1bbb
000001c0: ff9e 023d 6ba9 283b 8429 a33c 87e0 163d
000001d0: fb4f a438 9454 8b3c 0819 0d3b 3e56 233d
000001e0: 8a62 223d 6fbe 41bc bfa7 603d 1158 d03c
000001f0: 6b3b a63c a56b 303d 5f71 173d ce04 8e3d
0.012996845 0.07617529 -0.0012450702 0.028799035 0.028627113 0.07505743 0.030899014 0.022404198
0.07890819 -0.017158326 0.06937776 0.020566728 0.009137136 0.031175097 0.026887361 -0.016145287
-0.02515128 0.012121042 -0.0011335248 0.05398233 0.027539957 0.044174835 0.008081112 0.03313745
0.060897022 0.042193487 0.00053787645 0.0013618482 -0.003071975 0.016152577 0.00547586 -0.019530002
0.048991695 0.05485268 0.023010632 0.01679139 0.04453494 0.005809513 0.033410072 0.05177751
0.07036649 0.044327177 0.020518519 0.04502709 0.007310007 0.056283385 0.030616898 0.0760917
-0.0023267274 0.031487513 0.030481288 -0.00070804614 0.03370301 0.0078251865 0.016184932 0.012803705
0.08637858 0.012903575 0.035238 0.03949451 1.0273347e-05 -0.0027093673 -0.01131094 0.05669563
0.053361457 0.053003523 0.04006578 0.01896782 0.008281048 0.004740733 0.0056669293 0.017771082
0.024328787 -0.009474579 0.04383844 0.04716211 0.026315097 0.059492283 -0.008874142 -0.008241338
0.071674764 0.029972285 0.012012779 0.017815385 0.00508653 0.0054477667 0.00055176794 0.048629094
0.017602846 0.019692171 0.025091205 0.056708753 0.025638003 0.009431898 0.014467443 0.054411076
0.025149703 0.03729202 -0.0137867415 0.061044298 0.010220557 -0.018439168 0.017041914 0.01583592
0.013224047 0.031293467 0.024554195 0.028780602 0.010729095 -0.01377665 0.058711138 -0.0023711063
0.03188991 0.0025735747 0.019917257 0.03683522 7.835027e-05 0.017008103 0.0021529812 0.03987717
0.039644755 -0.011825188 0.054847475 0.025432618 0.020292005 0.043071408 0.036973353 0.0693451

sequential/dense_2/BiasAdd/ReadVariableOp f4 [10]
00000000: 8861 67bc 2e38 6abc 212a d6bc 88ab 0fba
00000010: 0c9c 00bd dd4b 483d 2132 2ebd 80d6 0abd
00000020: 0ed0 6e3d b349 5b3d
-0.014122374 -0.014295621 -0.026143136 -0.0005480577 -0.031398818 0.048900474 -0.042528275 -0.03389597
0.058303885 0.053537082

sequential/dense/BiasAdd/ReadVariableOp f4 [128]
00000000: 9494 8dbc abda 473d bad0 5a3b 64f1 183c
00000010: 27a4 a8bc f485 c0bc 72ac b9bc 6700 803c
00000020: 3b6a 763d e3b5 153d 82c1 8dbc e6a4 523d
00000030: c911 6bbb e290 003d 4f32 d83c 0cbc 053d
00000040: d659 febb f4cb 533d ee31 e7bc 337f 5d3d
00000050: f90a cdbb 24cd ba39 9171 273d c646 d33b
00000060: 3ae4 e03c db9b 3bbc 1692 733d 400b 2a3d
00000070: 9b48 da3d e8a4 063d 813c a03c 074f 833d
00000080: 1962 b13d 60ba 4ebc cf51 99bc 741a e23c
00000090: 43ac ae3c d3fb 093d fccf eb3b 9b4d b43c
000000a0: 311d d13c 1fd9 0e3d 1813 603d d001 873c
000000b0: 70f9 28bd 7b3a 2ebc 5786 4d3c 00ce aa3c
000000c0: cc9d ad3c a467 b43b 1b91 033d a505 753d
000000d0: 2df4 c23d 1f33 dc3b 99e2 dd3c 0ec4 63bb
000000e0: d419 8abc c766 abbb 533b 87bd ba05 1c3b
000000f0: 5098 983b f7ff 793d f78d aa3c d108 e5bc
00000100: e342 6dbb 50ef d0bc 4e7c 52bc b097 883d
00000110: 2681 b1bb 2389 a23c 31db 653d 65f7 953d
00000120: a5f0 eabc 8700 0b3d 10cc 603d 39fb 7fbc
00000130: 097f 9fbc 26b8 58bb e47c 683d f941 8d3d
00000140: 8f60 e33c d81f b6bb bb06 a53c 3936 ab3c
00000150: ad6e ef3b ed02 adbb 5762 b63d 8e0a 3dbc
00000160: 9d3b b23b 46bb 9dbb 2079 023d a840 23bb
00000170: 1192 a03a cb19 b3bc eb66 363d fcd7 f0ba
00000180: b84e 1e3c 056e 263c a6d0 abbb d7a5 cc3b
00000190: 10c9 383d 539c 173d 6943 db3c 5f47 c03b
000001a0: d041 aabc c062 473c 0d12 273d ddf5 1bbc
000001b0: 690b f53c bd08 a63d a71a 86bc 55e3 023d
000001c0: fb7f 57bc 77d0 3a3c a37e c93c d32b b8bc
000001d0: e074 013d 02c6 6f3d 8eef 3c3d 3a52 86bb
000001e0: 391a 733d 9927 a73d aac0 23bc 4b81 c33c
000001f0: 9dd7 3d3d cd21 9f3a 3e5a 233b bf65 593d
-0.017282762 0.048792522 0.003338857 0.009334896 -0.020586086 -0.023501374 -0.022665236 0.015625192
0.060159903 0.036550414 -0.017304186 0.05142679 -0.0035868755 0.03138817 0.026391177 0.03265004
-0.007762174 0.051708177 -0.02822205 0.054076385 -0.0062574116 0.00035629526 0.04087979 0.006447646
0.027452577 -0.011450733 0.05946549 0.041514635 0.1065838 0.03287211 0.0195601 0.06411558
0.08661289 -0.012617677 -0.018715767 0.027600504 0.021322375 0.033687424 0.0071964245 0.022009661
0.025526615 0.03487503 0.05470571 0.016480356 -0.041253507 -0.01063406 0.012544236 0.020850182
0.021193407 0.005505519 0.032120805 0.059819836 0.09519229 0.0067199613 0.02708559 -0.003475431
-0.016858019 -0.005230758 -0.06603112 0.0023807124 0.004656829 0.061035123 0.020819647 -0.027958306
-0.0036203198 -0.025504738 -0.012847019 0.06669557 -0.005417007 0.019840783 0.05611724 0.073225774
-0.028679201 0.03393605 0.05488211 -0.015623861 -0.019469755 -0.0033068745 0.05675973 0.06897349
0.027756004 -0.0055579953 0.02014481 0.020899879 0.0073068948 -0.00527989 0.089054756 -0.011538161
0.0054392354 -0.0048135845 0.031853795 -0.0024910364 0.0012250562 -0.021862885 0.044531744 -0.0018374915
0.009662323 0.010158067 -0.0052433787 0.0062453556 0.045113623 0.037014317 0.026765542 0.005867883
-0.020783335 0.01216954 0.0407887 -0.009519068 0.029912667 0.081071354 -0.01637013 0.031955082
-0.0131530715 0.011402241 0.024596518 -0.022481835 0.0316056 0.058538444 0.046126895 -0.0040991576
0.05935118 0.081618495 -0.009994665 0.023865363 0.046348203 0.0012140811 0.0024925615 0.05307555

sequential/dense/MatMul f4 [128, 784]
00000000: 00c7 d9ba 3e43 6d3d 176e 8e3d 024d 233d
00000010: 4821 73bc 5024 07bd 8033 4dbb 545a bfbc
00000020: a597 a4bd 6948 8b3d 9638 eebc 9db8 99bd
00000030: caf9 0cbd dcae 523c 27ca 9dbd ddc3 d03c
00000040: f0d1 4c3c d462 d9bc 66db 5dbd f212 66bd
00000050: 8628 38bd 482d c73c 6074 cfbc 7c53 0b3d
00000060: 60ba b4bb a24c 293d 24c9 d13c acee 50bd
00000070: 74b7 94bc c0eb 68bb 823f 073d d87d 213d
00000080: 9406 5fbd 308a 323d e66f 9a3c bd0b ae3c
00000090: 4853 b13d b83b 233c 84c9 a13c 8fea 4fbd
000000a0: 3f5b f23b fc51 a73c d081 ecbc 1711 9f3d
000000b0: 3e55 383d 8249 7437 3148 cdbc b2aa 9b3c
000000c0: cdd4 33bd be30 3d3d e49f 5c3d 2f4b 25bc
000000d0: 9966 903d 98b7 463c 22b6 94bd 1bab 1ebd
000000e0: ba1e 093d 283f 6ebd 7fb4 683d e239 c63d
000000f0: 19c2 fe3c 055a 79bd b3a8 87bd 1519 8ebd
00000100: 4a79 3a3c c21c e5bd 2ea6 34bd 2909 063c
00000110: 5107 d43c 4bcc 4abd ed0c 06be 2f21 25be
00000120: 2429 fdbd 0100 09be 8122 69bd e5bc ea3c
00000130: 3162 003a 2d99 3bbd 562c 2dbd 8335 31bd
00000140: a3cf 6f3d 1d6c bfbc 02ec 9ebd e54c 41bd
00000150: 06fe e5bc 701c 3fbd 22dd 203d fbd4 5f3c
00000160: f53d c73c d664 e9bc 5ce2 09bc bb45 373d
00000170: 596e 55bd d88b 48bd 2e1d 0bbc 80d5 903d
00000180: cd57 d63d 7e2d 18bd df28 6abc acc1 123d
00000190: 29f3 18be 5618 b5b9 b66d f8bd 0b39 e2bd
000001a0: 07b7 e73c cfda 36bd 7e35 bdbc 5235 0fbd
000001b0: fa6a 05bd 4a8c 4e3d 2f63 ef3d 8051 7a3c
000001c0: ce3b 503d f8ef 9d3c 6de1 02bc 6a81 a93d
000001d0: c29a 4cbd 98d8 093d 13e7 513d 380d 9b3d
000001e0: d502 243d 4ec3 72bc 4493 3e3d b90c 2c3d
000001f0: 53a6 9a3d d171 8d3c 1e73 94bc cb75 583d
00000200: 0fe1 b63c a952 d2bd 0e04 4abc 0432 bdbd
00000210: 27f6 98bd 989a 60bd 51ee 7a3c c77d 96bd
00000220: 9e07 e9bd 27e6 953c d629 57bd 7bab 033d
00000230: 6c02 94bc e241 5e3d bd60 48bd 83d4 b13b
00000240: 2f13 8a3b 15b4 e8bb f543 c9bc 6c94 39bd
00000250: 9069 ac3a 2317 ba3d 5970 db3d 2d7f 653d
00000260: 4c1e c53d bda8 4d3d 2040 cdbc 1e90 483d
00000270: 0589 713d 2e57 74bd 9876 35bc 887e 48bd
00000280: 9b09 cb3c a820 173b 9f9b c33d ee2c cabc
00000290: 32e7 c9bd 2a9f 62bd 2ae5 573d cf1d bfbc
000002a0: b490 c5bc 3857 30bd 0833 2bbd 6f32 a4bd
000002b0: b71b d2bc 1c06 ab3c 1bd2 37ba 0c22 86bc
000002c0: 9717 7d3c 3cec 26bd 9a3e c63d c7a5 66bc
000002d0: 8b84 50bd d4ed 2b3d 915c bc3d 9583 bc3d
000002e0: f30f a2bc 6821 d5bb c89a 53bd 5dc8 bfbd
000002f0: 876f 97bc 3c0c 433d e61b 4f3d 34d9 6dbd
00000300: ec77 773c b776 523d 7654 08bd 156b ce3c
00000310: a247 04bd 8539 053c 49c2 94bc c931 453c
00000320: 1ec2 5dbd d3d2 513d 9a4c cfbc 63fc 92bd
00000330: 4dc5 8bbc 3e7c c8bb 13a7 033c 5ed4 443d
00000340: a0e1 e3ba 655e 823d 31fb c13d 7951 ed3d
00000350: c7c9 833d 6aa6 853d ba85 bcbc 6295 073d
00000360: 128e 77bd 580e 06bd a269 ab3d 0616 673d
00000370: 6c80 1e3c 40d1 9cbd e9a6 08bc ab5c ba3c
00000380: 25be e23d 9a83 97bd f51d 20bc d558 edbc
00000390: da50 213c fbc1 9bbd d141 b2bd 35b4 a1bd
000003a0: 5de7 3c3d ab9c 93ba ab9c 7c3a ca85 7abd
000003b0: 7615 8b3d 591e 343d 6ecb 693d d50e 0c3e
000003c0: 0ace 203e a372 613d 41a5 473d 3f8f 923b
000003d0: ee1b 8a3d 12d0 b53d e7fd 0dbd 05f6 fab8
000003e0: efea 39bd 95b7 6abd d672 103d 7f8d 713d
000003f0: bd05 34bd 95d2 d3bb 9a4f 723d 2450 27bd
-0.0016615093 0.057925455 0.06954592 0.039868362 -0.014839478 -0.032993615 -0.0031311214 -0.023358501
-0.080367364 0.068009205 -0.029079717 -0.07505915 -0.034417905 0.012859073 -0.07704573 0.02548402
0.012501225 -0.026536383 -0.054164313 -0.05617041 -0.04496052 0.024313584 -0.025324047 0.034015164
-0.0055153817 0.04133285 0.025608607 -0.051008865 -0.018153884 -0.0035540909 0.03301955 0.039426655
-0.054449633 0.043588817 0.018852185 0.021245832 0.08658463 0.0099629685 0.01974941 -0.050760802
0.0073961313 0.020424835 -0.028870493 0.077669315 0.04500317 1.4560648e-05 -0.025058838 0.019002292
-0.043904115 0.046189062 0.05386342 -0.010088726 0.07050819 0.012128733 -0.072613016 -0.038737398
0.03347657 -0.0581657 0.05681276 0.09679009 0.031098412 -0.060876865 -0.06623974 -0.06938378
0.011381457 -0.11187126 -0.044103794 0.008180895 0.025882395 -0.049511235 -0.13090868 -0.1612594
-0.123613626 -0.13378908 -0.05691767 0.028654525 0.0004897444 -0.045800377 -0.04227861 -0.043263923
0.058547627 -0.023366982 -0.07759859 -0.047192473 -0.02807523 -0.04665798 0.03927339 0.013661618
0.024321536 -0.028490465 -0.008415785 0.044744235 -0.05210719 -0.04896149 -0.008490844 0.07071972
0.104659654 -0.03715276 -0.014291971 0.03582923 -0.14936508 -0.00034541142 -0.12130301 -0.11046036
0.028285516 -0.044642266 -0.023096796 -0.03496296 -0.032572724 0.05042676 0.1168884 0.01527822
0.050838284 0.019279465 -0.007988316 0.08276637 -0.049952276 0.033653826 0.05124576 0.07570881
0.040041763 -0.014817072 0.046527162 0.04200432 0.07551255 0.017266186 -0.018121298 0.05284671
0.022324113 -0.102696724 -0.012330068 -0.09238055 -0.07468825 -0.054834932 0.015315608 -0.07348209
-0.11378406 0.018298222 -0.052530132 0.03214596 -0.018067561 0.05426205 -0.04892038 0.0054269447
0.0042137126 -0.0071015456 -0.024568537 -0.04530756 0.0013154019 0.09086444 0.10714788 0.056029487
0.09624919 0.05020975 -0.025054991 0.048965566 0.058968563 -0.059653454 -0.011075638 -0.048948795
0.024784854 0.0023060236 0.09551167 -0.024679627 -0.0985855 -0.055327572 0.052708782 -0.023329644
-0.024116851 -0.04305193 -0.041796714 -0.08017432 -0.025647981 0.020876937 -0.0007012204 -0.016373657
0.015447519 -0.040752634 0.09679909 -0.01407761 -0.050907653 0.041974857 0.09197343 0.09204785
-0.019782996 -0.0065042265 -0.051661283 -0.09364388 -0.018485798 0.04761909 0.050563715 -0.05806847
0.015104275 0.051382747 -0.033283673 0.025197545 -0.032294877 0.0081313895 -0.018159049 0.0120357955
-0.054140203 0.05122645 -0.025305081 -0.07177045 -0.017061854 -0.0061183264 0.008035439 0.04805409
-0.0017385967 0.063656606 0.09471739 0.11587805 0.0643497 0.065258816 -0.023012985 0.033101447
-0.060438223 -0.032728523 0.08369757 0.056417488 0.009674173 -0.07657099 -0.008340576 0.022749266
0.110714234 -0.07398148 -0.009772767 -0.028973022 0.009845937 -0.07605358 -0.0870396 -0.078957
0.046119083 -0.0011261901 0.00096363825 -0.061162747 0.06791203 0.043974254 0.05707877 0.13677533
0.15703598 0.055040967 0.048741583 0.0044726427 0.067436084 0.08877577 -0.03466597 -0.00011966754
-0.045390066 -0.057303984 0.035265766 0.05897283 -0.043950785 -0.0064643123 0.059157945 -0.040847912

sequential/dense_1/MatMul f4 [128, 128]
00000000: de8d 91bc 2da3 2cbe 8eac 213e 7e9a 2a3e
00000010: b308 333e 8ed3 013e a074 44bb 5823 b83e
00000020: 2939 15bd 13e2 a53c fc1b 433e 85c6 c0bd
00000030: da45 163d 8b01 35bd 9198 20be a6da 143d
00000040: 01f0 1d3e 2e57 9cbd b527 083d 2e9d 0cbe
00000050: e506 34be 81d1 fa3b 9ea2 183e 87c3 af3d
00000060: 37c9 473d 045e 2a3e 8334 443d 2c91 83bd
00000070: 59a7 80bc 8000 f6bd 5fae 373e 79fe ab3d
00000080: a286 f53d c433 803c 0476 0dbe ff37 96bb
00000090: b809 173d 8af7 b53d 3b53 533d f891 64be
000000a0: c659 323e b27d f83d b9be 1d3e 3e89 26be
000000b0: 501d 8dbd 3e0f b5ba 0c92 f1bd 2be1 303e
000000c0: 3081 4abe 0e4d e63d 11d4 a73d 6687 353d
000000d0: e059 253d 2fb1 253d 2c62 36be 7537 d53d
000000e0: 22da 8fbd 4c8a 093e 0703 0a3c 4466 c5bd
000000f0: 33b8 d03c e4a8 4e3e b560 a0bc dafe 763d
00000100: 29c8 6d3d 8fb1 51bd 1ff2 ccbd 41f0 c2bd
00000110: b1ff 2d3d cfa0 04bd 641b c1bb 29a2 c63d
00000120: ab6d 093e 1ef9 90bc 07dd 22be f81d 15be
00000130: 6004 bcbc 4bc7 eb3d 6cbd e23d 8c5c f53d
00000140: c5a6 323e 28e3 02be d009 353d 0890 d0bd
00000150: 264d 80bd fed0 803e 1c2a 81be dd81 283e
00000160: 599d 753e 14bd 0dbe ed39 37bd 2568 85bd
00000170: b83f 1dbc 8311 f03d fc65 6f3b 594c 7a3e
00000180: 558b 0cbe bd24 5cba d6fd f53d 2ccb 02bd
00000190: 3f23 e9bc 8e23 81bd 4f5a 653b 2500 04bd
000001a0: 6c18 913d 5fb8 843d 319f b5bd 3c34 08bd
000001b0: e7b9 433e 0311 f73c 4b26 1e3e 7310 9dbc
000001c0: e340 c9be f810 f5bd 62b2 0bbb de39 06bd
000001d0: 1070 a13c 75e3 c63d 2208 54be 39ad 13bc
000001e0: bc21 883d 7cda 56bc b930 09bd 330e 11bd
000001f0: 2eaf 0fbe 7ceb 01be 9983 87bc 8203 063c
00000200: f830 0b3e 3793 9dbd 6e70 a53d 91eb e3bc
00000210: b1a0 e03c 399e 4abd ae98 f7bd a12a 0c3e
00000220: 6047 edbd 07c6 313e b3ae 3cbe 0bd9 93bd
00000230: 287f e53c 8b28 b63d 6e01 053e f196 8ebd
00000240: b35b fa3d 44f9 173d 407b b53b 8dce e23d
00000250: 4cf6 02be 00f6 cfbd ed58 ef3d a88a a9bd
00000260: d1bd c1bd 6f59 ddbd 594f bdbc e49a 14bd
00000270: 3cf6 983d 64fe ec3d 452c e63d 9557 813d
00000280: 3fcd 473e 4bd1 933c 7166 cebb 7600 5b3b
00000290: 42ea 283e 855e 2abe 5697 e33d 1614 2ebe
000002a0: 025e 143e 1a4c fe3d dfb8 c5bd 078f cfbc
000002b0: dde6 b8bc 3996 973c f8cb 913d 2ae5 6cbd
000002c0: cf77 1d3e 8490 fc3c fc06 363e 0cc6 5fbe
000002d0: b03f 97be f9e3 8c3d 2664 92ba 8e6f 07bd
000002e0: d166 cebd 7dba 13be 5daf e8bc dc4a 31bd
000002f0: 20b9 27be 8389 9e3d 49f5 25be f7bc dfbd
00000300: 1d7f 3e3c adb4 9fbd eb55 1c3d c520 0e3e
00000310: 522c 943d b549 a13d 14d8 88bd f411 afbd
00000320: a63c 95bc e88c a43d b378 013e 110b 1c3e
00000330: 424e 0e3e df9c 33be 8688 5c3d ba03 d23b
00000340: c823 3e3b e832 71bd 88a6 a0bd 5d84 033d
00000350: 815b d3bc f6ef 293e 2ca6 723c 5a46 a93d
00000360: f409 bd3c 6c60 09be 0113 823d de61 f1bd
00000370: b022 eebd 846d ea3d f704 523e 991e 96bb
00000380: 6e8a 8e3b a566 4dbd d855 51be 160a fc3c
00000390: 0d2d c83d 348e 203e 8e19 0c3e b8e0 ec3c
000003a0: 40ce 56bd b105 093d 29f4 01be cf0f 0e3d
000003b0: cf7d 1dbd d1b3 12be a8aa 833b 4c88 ea3d
000003c0: 0a39 52be e495 7fbd 7b31 403e dcce 72bc
000003d0: e54b 023e b0f4 7d3d 4c19 8dbc d00b 41be
000003e0: 4c83 1c3d 7b8d afbc 1e25 9dbd 4b7c 313d
000003f0: a504 8cbe b44e 07bd e11d 253d 9671 ccbc
-0.017767843 -0.16859122 0.1578848 0.16660497 0.17483787 0.12678358 -0.002997674 0.35964465
-0.036431465 0.020249402 0.19053644 -0.094128646 0.03668771 -0.044190925 -0.156832 0.036341332
0.15423585 -0.07633816 0.033240993 -0.13731834 -0.17580755 0.0076543693 0.14905784 0.08582216
0.048775878 0.16637427 0.04790164 -0.06424174 -0.015704798 -0.12011814 0.17937611 0.08398146
0.1198857 0.015649684 -0.1381455 -0.004584312 0.036874503 0.08885105 0.051593047 -0.22321308
0.17417058 0.121333495 0.15404786 -0.16263291 -0.068903565 -0.0013813747 -0.11795434 0.17273395
-0.19775844 0.11245166 0.08194745 0.04431858 0.040368915 0.04045218 -0.17810887 0.10410968
-0.070240274 0.13431662 0.008423573 -0.09638646 0.025478458 0.20181614 -0.019577364 0.06030164
0.058052216 -0.051194724 -0.100071184 -0.09518481 0.042480174 -0.03237992 -0.005893158 0.09698898
0.13420741 -0.017696913 -0.15904628 -0.14562213 -0.022951305 0.115126215 0.110712856 0.119805425
0.1744643 -0.12781966 0.04419881 -0.10183722 -0.06264715 0.25159448 -0.2522744 0.16455789
0.23985805 -0.13841659 -0.044732977 -0.065140046 -0.009597711 0.1172209 0.0036529293 0.24443187
-0.13725026 -0.00083978084 0.12011306 -0.03193204 -0.02845919 -0.0630561 0.0034996455 -0.0322267
0.07084736 0.064804785 -0.08868254 -0.03325294 0.19113885 0.030159479 0.15444295 -0.019172883
-0.39307317 -0.11966127 -0.0021316041 -0.03277003 0.019706756 0.09711353 -0.20706227 -0.0090134675
0.06647059 -0.013113614 -0.03349373 -0.035413932 -0.1403167 -0.12687486 -0.016542243 0.008179547
0.13592899 -0.07694095 0.08078085 -0.027822288 0.027420374 -0.0494673 -0.12089668 0.13688137
-0.11585879 0.17360698 -0.18426017 -0.07219132 0.028014734 0.08894452 0.12988827 -0.069623835
0.122245215 0.037102953 0.005538374 0.11074553 -0.12789267 -0.10154343 0.11686883 -0.082784
-0.09460033 -0.10808074 -0.023109125 -0.036280528 0.074688405 0.11571959 0.112389125 0.06315533
0.19511889 0.018044135 -0.006298833 0.0033417023 0.16495612 -0.16637619 0.111128494 -0.1699985
0.14488986 0.12416859 -0.09654402 -0.025336755 -0.022571022 0.018504249 0.07118982 -0.057835735
0.15377735 0.03083063 0.17776102 -0.21852893 -0.29540777 0.0687942 -0.0011168763 -0.03306537
-0.100782044 -0.14426608 -0.028403932 -0.043284282 -0.16379213 0.07741072 -0.1620685 -0.10924714
0.011626986 -0.07798133 0.038167875 0.13879688 0.07235016 0.078753866 -0.06681839 -0.08548346
-0.018217396 0.08034688 0.126437 0.15238596 0.1389704 -0.1754031 0.053841136 0.0064091356
0.0029013027 -0.05888644 -0.07844263 0.032108653 -0.025800468 0.16595444 0.014810126 0.082653716
0.023076035 -0.13415688 0.06351281 -0.11786245 -0.1162771 0.1144667 0.20509706 -0.0045812842
0.004349998 -0.050146718 -0.20442903 0.030766528 0.09774218 0.15679246 0.13681623 0.028915748
-0.05244279 0.033452693 -0.12690796 0.034683045 -0.03845006 -0.14326407 0.0040181465 0.11451778
-0.20529571 -0.062398806 0.18768875 -0.014819827 0.12724264 0.06200093 -0.017223977 -0.18852162
0.038211152 -0.021429768 -0.07673095 0.043331426 -0.27347293 -0.03303404 0.040311698 -0.024956506

sequential/dense_2/MatMul f4 [10, 128]
00000000: 150f 69be 6685 bcbe 6f19 6bbe ef43 473e
00000010: fc7b 423e 13c7 d2bd 5b74 5fbe f8b4 5abe
00000020: 39ba 8cbe 7161 0c3e 3d35 433e 3092 de3d
00000030: 5706 313d 1ac4 81be 4c7a 8b3e 9c65 323e
00000040: 5079 9abe d76e 29be 9cc2 cb3d 3f73 9dbe
00000050: 1163 7bbd a54d 653e 72ec 853e e40f b23d
00000060: 9fe6 8ebe 860b 733c dc3f 30be 46ac 47be
00000070: 5c51 5bbe e379 25be 8670 1ebe dffb 7e3e
00000080: 917a 633e 54b5 67be c03c a0be b23f aabe
00000090: 346b c9be e77f e2bd 2727 83bd b124 06be
000000a0: 0d74 2fbe 3e5b 493c 131a a2bd 9016 8abe
000000b0: 65f1 a7be dd90 393e ff60 883d ebbe 52bc
000000c0: ced5 703e db66 ef3d 978c 523e d1ff bd3d
000000d0: 03b6 a0be 5177 0f3d 95e2 c3bd 806c 78be
000000e0: 7721 09be cb3e 613d 264d 77be c6dd ef3d
000000f0: 2323 47be db65 4bbe ddd8 813d bfdf 5cbe
00000100: c7f7 2d3e 40fc 51bd 256b 83be f07e 08be
00000110: f1eb 883e 41e1 fcbd 3cea bf3d 17f9 38be
00000120: 90c5 debd ce11 32be 5ae3 8ebe 203d 503e
00000130: 90f7 193e 08dd aebe bbc7 5f3d 5a3a 4c3e
00000140: 1973 373e 2a15 c53d 8430 80bc 845d cbbc
00000150: 8aff 14be b977 febd 05b3 36bd 6b98 043e
00000160: f370 62be 642f 8e3d 801d 63bd 4430 303e
00000170: b3e2 22be 824d fabd 68cb cdbd f408 2ebe
00000180: a36a 2dbe 0130 a1bd 0994 e4bd 58e7 a9bd
00000190: 91b4 663d 96cf 183e acdb ebbd b5aa 513c
000001a0: 3ce0 413e a421 623e 3b52 5a3e 2d62 adbd
000001b0: 116b fd3d 57c4 7b3e cd48 afbe 2afa 773e
000001c0: 80e7 1c3e 4a71 89bd 003c bc3d 259b a33d
000001d0: ccde 98be 0d53 ea3d 5386 93be fa83 9cbe
000001e0: c09b 66be ddbc bd3d b370 a5be 5de8 193e
000001f0: dfa7 aabe 468d 38be 9fea 50be 7fba 67bd
00000200: 1454 2b3e 516a 073e 1cbc a73d 9584 acbe
00000210: 81c7 41be 41db 9fbe 179d 013e 8374 203e
00000220: 9111 5ebe d356 13be cd07 6abe a8fa ce3d
00000230: 8b85 f83d c26d 703e 07e9 be3d e241 47be
00000240: 6b05 7d3e 7673 1e3e 1da9 73bd feee a13d
00000250: a64a 4e3e c8fa 883d e640 503e 8f1a 8dbe
00000260: c3e1 58be a49e e8bc cc8c 2dbe ba50 40be
00000270: 88fc f2bd 120d 723d 97ff 163e 563e 233e
00000280: d116 66be 010d 66be d55e 673e 84dd 083e
00000290: 335e 5ebe 4f8d d1be 301c 80bd 7aaf 95be
000002a0: 5f8d 30bd f283 493e fba7 373e e759 e0bd
000002b0: 3278 5b3e ef7e 85be af3b 353d 7bd3 93be
000002c0: 0cb2 7f3e 67fc 94be 6fd9 163d 10c5 2ebd
000002d0: 595b af3c 130d adbd 98e8 0a3d 9a8b 0c3e
000002e0: 4405 e33b c5b7 8ebe 41a7 bfbd 8008 133e
000002f0: 8038 1d3e 2bec 80be 2cc1 2fbd 5dc9 eebc
00000300: dd58 77be 82aa a93c 6fba 43be fad2 80be
00000310: 7fdc 41be 8027 bd3c bb3a 4bbe 2bb3 4b3e
00000320: 0ec4 e63d 9fca 2b3e 381d 413e 66ab d5bd
00000330: 101b 4ebe 6d45 91be 28a2 653e 0bad 4abe
00000340: f97b 5fbe 2827 48bd 0b82 55be 741b 1d3d
00000350: a4b0 3c3e 1bb8 253e 41ad 3f3e 0313 1fbe
00000360: 2e36 ab3b b141 97be 47a1 8bbc 1202 573e
00000370: 0fcb 8dbe 58f7 7a3e 2f0c 043e 3acd 9ebe
00000380: c9ca 763e 144c 84be 5eea d53e 822e 89be
00000390: a478 103e 8e7f 5f3e c860 ddbd 199b 653e
000003a0: 1321 113c f859 fdbd 8103 c33d 2944 c4bc
000003b0: ea0a 3fbe 6a09 f6bd 1f04 153e b861 9a3d
000003c0: 1e32 813d de92 563e cffe a2bb 9cd5 a0be
000003d0: 0273 d13d b3a1 febb 84a4 f23d 5350 6ebd
000003e0: 613f 32be b674 65be 82e1 763e 0c6f 223e
000003f0: 5f25 9e3d 7379 14be f358 2f3c 4ea4 77be
-0.2275966 -0.36820525 -0.22958921 0.19459508 0.18992609 -0.10291877 -0.2182173 -0.21358097
-0.27485827 0.13709046 0.19063278 0.10867727 0.043218937 -0.25344926 0.27241743 0.17421573
-0.3017068 -0.16546188 0.09949228 -0.30751988 -0.061373774 0.223929 0.26156956 0.08694437
-0.27910325 0.01483429 -0.1721186 -0.19499311 -0.21417755 -0.16159777 -0.15472612 0.24900769
0.22214724 -0.22627765 -0.3129635 -0.3325172 -0.39339602 -0.11059552 -0.06403952 -0.13099934
-0.17134114 0.01228982 -0.079151295 -0.2697034 -0.32801357 0.18121667 0.066591255 -0.012862901
0.2351906 0.1168954 0.20561443 0.09277309 -0.31388864 0.0350259 -0.095647015 -0.2426014
-0.13391672 0.054991525 -0.24150524 0.11712222 -0.19446997 -0.19863074 0.063401915 -0.21569727
0.16989051 -0.051265955 -0.25667682 -0.13329673 0.2674251 -0.12347651 0.093708485 -0.1806377
-0.10877526 -0.17389604 -0.2790783 0.20335817 0.15035844 -0.34153008 0.054633837 0.19944134
0.17915 0.09623177 -0.015648134 -0.024824865 -0.14550605 -0.12425179 -0.04460432 0.12948768
-0.22113399 0.06942633 -0.055448055 0.17205912 -0.15906791 -0.12221815 -0.10048562 -0.16995603
-0.1693521 -0.07870484 -0.11161048 -0.082960784 0.056324545 0.14922938 -0.115165085 0.012797047
0.18933195 0.22083145 0.21320431 -0.08465991 0.12373937 0.24586616 -0.3423523 0.24216524
0.15322685 -0.06711061 0.091911316 0.07988576 -0.2985748 0.11441622 -0.2881342 -0.3056944
-0.22520351 0.092645384 -0.32312545 0.15030046 -0.333312 -0.18022642 -0.20402001 -0.05657434
0.16731292 0.1322415 0.08190176 -0.33694902 -0.18923761 -0.31221965 0.12657581 0.15669446
-0.21686389 -0.1438859 -0.22854538 0.10106403 0.12134846 0.2347937 0.0932179 -0.19458726
0.24709098 0.15473732 -0.05948745 0.07906912 0.20145664 0.06688458 0.20337257 -0.27559325
-0.21179871 -0.028395958 -0.16948241 -0.18780795 -0.11864573 0.059094496 0.14745937 0.15941748
-0.22469641 -0.22465898 0.2259477 0.13365752 -0.21715622 -0.40928122 -0.06255376 -0.2923544
-0.043103572 0.1967924 0.17935173 -0.109546475 0.2143257 -0.26073405 0.04424637 -0.28872284
0.24970263 -0.29098818 0.036828455 -0.042668402 0.021405863 -0.08449759 0.033913225 0.13725129
0.006928118 -0.2787458 -0.09358073 0.14358711 0.15353584 -0.25180182 -0.042908832 -0.029148752
-0.24154992 0.020711187 -0.19114088 -0.25160962 -0.18931769 0.023090124 -0.19846623 0.19892566
0.11267863 0.16776513 0.18858802 -0.10433082 -0.20127511 -0.2837328 0.22425139 -0.19792573
-0.21824636 -0.048865467 -0.20850389 0.03835626 0.18426758 0.16183512 0.18718435 -0.15534596
0.0052249646 -0.29542306 -0.017044676 0.20996884 -0.27693984 0.24508417 0.12895273 -0.3101595
0.24100794 -0.25839293 0.4178037 -0.26793295 0.14108521 0.21826002 -0.10809475 0.22422446
0.008857983 -0.12370676 0.09522153 -0.023958283 -0.18656507 -0.12013514 0.14552353 0.075381696
0.06308387 0.20954463 -0.004974223 -0.3141297 0.10227014 -0.007770741 0.11847785 -0.058182072
-0.1740699 -0.22407803 0.24109462 0.15862674 0.07721972 -0.14499454 0.0107023595 -0.24183771
